…
[INFO] Loading Traning and Test Datasets.
2021-02-08 09:58:01.434240: I tensorflow/core/platform/cpu_feature_guard.cc:142] This TensorFlow binary is optimized with oneAPI Deep Neural Network Library (oneDNN) to use the following CPU instructions in performance-critical operations:  AVX2 FMA
To enable them in other operations, rebuild TensorFlow with the appropriate compiler flags.
Model: "sequential"
_________________________________________________________________
Layer (type)                 Output Shape              Param #
=================================================================
conv2d (Conv2D)              (None, 30, 30, 15)        420
_________________________________________________________________
max_pooling2d (MaxPooling2D) (None, 15, 15, 15)        0
_________________________________________________________________
conv2d_1 (Conv2D)            (None, 13, 13, 75)        10200
_________________________________________________________________
max_pooling2d_1 (MaxPooling2 (None, 5, 5, 75)          0
_________________________________________________________________
conv2d_2 (Conv2D)            (None, 3, 3, 375)         253500
_________________________________________________________________
max_pooling2d_2 (MaxPooling2 (None, 1, 1, 375)         0
_________________________________________________________________
flatten (Flatten)            (None, 375)               0
_________________________________________________________________
dense (Dense)                (None, 120)               45120
_________________________________________________________________
dense_1 (Dense)              (None, 84)                10164
_________________________________________________________________
dense_2 (Dense)              (None, 10)                850
=================================================================
Total params: 320,254
Trainable params: 320,254
Non-trainable params: 0
_________________________________________________________________

2021-02-08 09:58:01.923136: I tensorflow/compiler/mlir/mlir_graph_optimization_pass.cc:116] None of the MLIR optimization passes are enabled (registered 2)
Epoch 1/50
12500/12500 [==============================] - 56s 4ms/step - loss: 0.0866 - accuracy: 0.2208 - val_loss: 0.0791 - val_accuracy: 0.3582
…
