…
2021-02-07 19:54:56.224470: I tensorflow/core/common_runtime/gpu/gpu_device.cc:1406] Created TensorFlow device (/job:localhost/replica:0/task:0/device:GPU:0 with 4720 MB memory) -> physical GPU (device: 0, name: GeForce RTX 2060 with Max-Q Design, pci bus id: 0000:01:00.0, compute capability: 7.5)
2021-02-07 19:54:56.234234: I tensorflow/compiler/jit/xla_gpu_device.cc:99] Not creating XLA devices, tf_xla_enable_xla_devices not set
Model: "sequential"
_________________________________________________________________
Layer (type)                 Output Shape              Param #
=================================================================
conv2d (Conv2D)              (None, 30, 30, 60)        1680
_________________________________________________________________
max_pooling2d (MaxPooling2D) (None, 15, 15, 60)        0
_________________________________________________________________
conv2d_1 (Conv2D)            (None, 13, 13, 920)       497720
_________________________________________________________________
max_pooling2d_1 (MaxPooling2 (None, 5, 5, 920)         0
_________________________________________________________________
flatten (Flatten)            (None, 23000)             0
_________________________________________________________________
dense (Dense)                (None, 10000)             230010000
_________________________________________________________________
dense_1 (Dense)              (None, 4800)              48004800
_________________________________________________________________
dense_2 (Dense)              (None, 2400)              11522400
_________________________________________________________________
dense_3 (Dense)              (None, 800)               1920800
_________________________________________________________________
dense_4 (Dense)              (None, 400)               320400
_________________________________________________________________
dense_5 (Dense)              (None, 120)               48120
_________________________________________________________________
dense_6 (Dense)              (None, 84)                10164
_________________________________________________________________
dense_7 (Dense)              (None, 10)                850
=================================================================
Total params: 292,336,934
Trainable params: 292,336,934
Non-trainable params: 0
_________________________________________________________________

2021-02-07 19:54:56.860487: I tensorflow/compiler/mlir/mlir_graph_optimization_pass.cc:116] None of the MLIR optimization passes are enabled (registered 2)
Epoch 1/50
2021-02-07 19:54:57.393571: I tensorflow/stream_executor/platform/default/dso_loader.cc:49] Successfully opened dynamic library cublas64_11.dll
…
