Model: "sequential"
_________________________________________________________________
Layer (type)                 Output Shape              Param #
=================================================================
conv2d (Conv2D)              (None, 24, 24, 4)         104
_________________________________________________________________
batch_normalization (BatchNo (None, 24, 24, 4)         16
_________________________________________________________________
max_pooling2d (MaxPooling2D) (None, 12, 12, 4)         0
_________________________________________________________________
conv2d_1 (Conv2D)            (None, 10, 10, 16)        592
_________________________________________________________________
max_pooling2d_1 (MaxPooling2 (None, 5, 5, 16)          0
_________________________________________________________________
flatten (Flatten)            (None, 400)               0
_________________________________________________________________
dense (Dense)                (None, 10)                4010
=================================================================
Total params: 4,722
Trainable params: 4,714
Non-trainable params: 8
_________________________________________________________________
Epoch 1
loss: 0.0503 - accuracy: 0.7186 - val_loss: 0.0434 - val_accuracy: 0.7566
Epoch 2
loss: 0.0391 - accuracy: 0.7891 - val_loss: 0.0383 - val_accuracy: 0.7856
Epoch 3
loss: 0.0360 - accuracy: 0.8087 - val_loss: 0.0356 - val_accuracy: 0.8025
…
