Model: "sequential"
_________________________________________________________________
Layer (type)                 Output Shape              Param #   
=================================================================
conv2d (Conv2D)              (None, 24, 24, 10)        260       
_________________________________________________________________
batch_normalization (BatchNo (None, 24, 24, 10)        40        
_________________________________________________________________
max_pooling2d (MaxPooling2D) (None, 12, 12, 10)        0         
_________________________________________________________________
conv2d_1 (Conv2D)            (None, 10, 10, 100)       9100      
_________________________________________________________________
max_pooling2d_1 (MaxPooling2 (None, 5, 5, 100)         0         
_________________________________________________________________
flatten (Flatten)            (None, 2500)              0         
_________________________________________________________________
dense (Dense)                (None, 50)                125050    
_________________________________________________________________
dense_1 (Dense)              (None, 10)                510       
=================================================================
Total params: 134,960
Trainable params: 134,940
Non-trainable params: 20
_________________________________________________________________
Epoch 1
loss: 0.0369 - accuracy: 0.7944 - val_loss: 0.0302 - val_accuracy: 0.8256
Epoch 2
loss: 0.0270 - accuracy: 0.8517 - val_loss: 0.0262 - val_accuracy: 0.8503
Epoch 3
loss: 0.0242 - accuracy: 0.8664 - val_loss: 0.0244 - val_accuracy: 0.8616
…
