…
2021-02-08 08:19:06.495476: I tensorflow/core/common_runtime/gpu/gpu_device.cc:1406] Created TensorFlow device (/job:localhost/replica:0/task:0/device:GPU:0 with 4720 MB memory) -> physical GPU (device: 0, name: GeForce RTX 2060 with Max-Q Design, pci bus id: 0000:01:00.0, compute capability: 7.5)
2021-02-08 08:19:06.506303: I tensorflow/compiler/jit/xla_gpu_device.cc:99] Not creating XLA devices, tf_xla_enable_xla_devices not set
Model: "sequential"
_________________________________________________________________
Layer (type)                 Output Shape              Param #
=================================================================
conv2d (Conv2D)              (None, 30, 30, 24)        672
_________________________________________________________________
max_pooling2d (MaxPooling2D) (None, 15, 15, 24)        0
_________________________________________________________________
conv2d_1 (Conv2D)            (None, 13, 13, 192)       41664
_________________________________________________________________
max_pooling2d_1 (MaxPooling2 (None, 5, 5, 192)         0
_________________________________________________________________
flatten (Flatten)            (None, 4800)              0
_________________________________________________________________
dense (Dense)                (None, 2400)              11522400
_________________________________________________________________
dense_1 (Dense)              (None, 800)               1920800
_________________________________________________________________
dense_2 (Dense)              (None, 400)               320400
_________________________________________________________________
dense_3 (Dense)              (None, 120)               48120
_________________________________________________________________
dense_4 (Dense)              (None, 84)                10164
_________________________________________________________________
dense_5 (Dense)              (None, 10)                850
=================================================================
Total params: 13,865,070
Trainable params: 13,865,070
Non-trainable params: 0
_________________________________________________________________

2021-02-08 08:19:07.065980: I tensorflow/compiler/mlir/mlir_graph_optimization_pass.cc:116] None of the MLIR optimization passes are enabled (registered 2)
Epoch 1/50
2021-02-08 08:19:07.551490: I tensorflow/stream_executor/platform/default/dso_loader.cc:49] Successfully opened dynamic library cublas64_11.dll
…
