…
2021-02-06 18:59:30.599213: I tensorflow/core/common_runtime/gpu/gpu_device.cc:1406] Created TensorFlow device (/job:localhost/replica:0/task:0/device:GPU:0 with 4720 MB memory) -> physical GPU (device: 0, name: GeForce RTX 2060 with Max-Q Design, pci bus id: 0000:01:00.0, compute capability: 7.5)
2021-02-06 18:59:30.601672: I tensorflow/compiler/jit/xla_gpu_device.cc:99] Not creating XLA devices, tf_xla_enable_xla_devices not set
Model: "sequential"
_________________________________________________________________
Layer (type)                 Output Shape              Param #
=================================================================
conv2d (Conv2D)              (None, 30, 30, 6)         168
_________________________________________________________________
max_pooling2d (MaxPooling2D) (None, 15, 15, 6)         0
_________________________________________________________________
conv2d_1 (Conv2D)            (None, 13, 13, 16)        880
_________________________________________________________________
max_pooling2d_1 (MaxPooling2 (None, 5, 5, 16)          0
_________________________________________________________________
flatten (Flatten)            (None, 400)               0
_________________________________________________________________
dense (Dense)                (None, 120)               48120
_________________________________________________________________
dense_1 (Dense)              (None, 84)                10164
_________________________________________________________________
dense_2 (Dense)              (None, 10)                850
=================================================================
Total params: 60,182
Trainable params: 60,182
Non-trainable params: 0
_________________________________________________________________

2021-02-06 18:59:31.127439: I tensorflow/compiler/mlir/mlir_graph_optimization_pass.cc:116] None of the MLIR optimization passes are enabled (registered 2)
Epoch 1/20
2021-02-06 18:59:31.523804: I tensorflow/stream_executor/platform/default/dso_loader.cc:49] Successfully opened dynamic library cublas64_11.dll
…
